2024-06-05 15:21:29,__main__,INFO,train.py --config_path /DKUdata/tangbl/MambaCodec/config/base.yaml --name base --ckpt_path /DKUdata/tangbl/MambaCodec/ckpt
2024-06-05 15:21:30,root,INFO,Using distributed residual vector quantization.
2024-06-05 15:21:33,root,INFO,model: Encodec(
  (encoder): SEANetEncoder(
    (model): Sequential(
      (0): SConv1d(
        (conv): NormConv1d(
          (conv): Conv1d(1, 32, kernel_size=(7,), stride=(1,))
          (norm): GroupNorm(1, 32, eps=1e-05, affine=True)
        )
      )
      (1): SEANetResnetBlock(
        (block): Sequential(
          (0): ELU(alpha=1.0)
          (1): SConv1d(
            (conv): NormConv1d(
              (conv): Conv1d(32, 16, kernel_size=(3,), stride=(1,))
              (norm): GroupNorm(1, 16, eps=1e-05, affine=True)
            )
          )
          (2): ELU(alpha=1.0)
          (3): SConv1d(
            (conv): NormConv1d(
              (conv): Conv1d(16, 32, kernel_size=(1,), stride=(1,))
              (norm): GroupNorm(1, 32, eps=1e-05, affine=True)
            )
          )
        )
        (shortcut): SConv1d(
          (conv): NormConv1d(
            (conv): Conv1d(32, 32, kernel_size=(1,), stride=(1,))
            (norm): GroupNorm(1, 32, eps=1e-05, affine=True)
          )
        )
      )
      (2): ELU(alpha=1.0)
      (3): SConv1d(
        (conv): NormConv1d(
          (conv): Conv1d(32, 64, kernel_size=(4,), stride=(2,))
          (norm): GroupNorm(1, 64, eps=1e-05, affine=True)
        )
      )
      (4): SEANetResnetBlock(
        (block): Sequential(
          (0): ELU(alpha=1.0)
          (1): SConv1d(
            (conv): NormConv1d(
              (conv): Conv1d(64, 32, kernel_size=(3,), stride=(1,))
              (norm): GroupNorm(1, 32, eps=1e-05, affine=True)
            )
          )
          (2): ELU(alpha=1.0)
          (3): SConv1d(
            (conv): NormConv1d(
              (conv): Conv1d(32, 64, kernel_size=(1,), stride=(1,))
              (norm): GroupNorm(1, 64, eps=1e-05, affine=True)
            )
          )
        )
        (shortcut): SConv1d(
          (conv): NormConv1d(
            (conv): Conv1d(64, 64, kernel_size=(1,), stride=(1,))
            (norm): GroupNorm(1, 64, eps=1e-05, affine=True)
          )
        )
      )
      (5): ELU(alpha=1.0)
      (6): SConv1d(
        (conv): NormConv1d(
          (conv): Conv1d(64, 128, kernel_size=(4,), stride=(2,))
          (norm): GroupNorm(1, 128, eps=1e-05, affine=True)
        )
      )
      (7): SEANetResnetBlock(
        (block): Sequential(
          (0): ELU(alpha=1.0)
          (1): SConv1d(
            (conv): NormConv1d(
              (conv): Conv1d(128, 64, kernel_size=(3,), stride=(1,))
              (norm): GroupNorm(1, 64, eps=1e-05, affine=True)
            )
          )
          (2): ELU(alpha=1.0)
          (3): SConv1d(
            (conv): NormConv1d(
              (conv): Conv1d(64, 128, kernel_size=(1,), stride=(1,))
              (norm): GroupNorm(1, 128, eps=1e-05, affine=True)
            )
          )
        )
        (shortcut): SConv1d(
          (conv): NormConv1d(
            (conv): Conv1d(128, 128, kernel_size=(1,), stride=(1,))
            (norm): GroupNorm(1, 128, eps=1e-05, affine=True)
          )
        )
      )
      (8): ELU(alpha=1.0)
      (9): SConv1d(
        (conv): NormConv1d(
          (conv): Conv1d(128, 256, kernel_size=(8,), stride=(4,))
          (norm): GroupNorm(1, 256, eps=1e-05, affine=True)
        )
      )
      (10): SEANetResnetBlock(
        (block): Sequential(
          (0): ELU(alpha=1.0)
          (1): SConv1d(
            (conv): NormConv1d(
              (conv): Conv1d(256, 128, kernel_size=(3,), stride=(1,))
              (norm): GroupNorm(1, 128, eps=1e-05, affine=True)
            )
          )
          (2): ELU(alpha=1.0)
          (3): SConv1d(
            (conv): NormConv1d(
              (conv): Conv1d(128, 256, kernel_size=(1,), stride=(1,))
              (norm): GroupNorm(1, 256, eps=1e-05, affine=True)
            )
          )
        )
        (shortcut): SConv1d(
          (conv): NormConv1d(
            (conv): Conv1d(256, 256, kernel_size=(1,), stride=(1,))
            (norm): GroupNorm(1, 256, eps=1e-05, affine=True)
          )
        )
      )
      (11): ELU(alpha=1.0)
      (12): SConv1d(
        (conv): NormConv1d(
          (conv): Conv1d(256, 512, kernel_size=(10,), stride=(5,))
          (norm): GroupNorm(1, 512, eps=1e-05, affine=True)
        )
      )
      (13): SEANetResnetBlock(
        (block): Sequential(
          (0): ELU(alpha=1.0)
          (1): SConv1d(
            (conv): NormConv1d(
              (conv): Conv1d(512, 256, kernel_size=(3,), stride=(1,))
              (norm): GroupNorm(1, 256, eps=1e-05, affine=True)
            )
          )
          (2): ELU(alpha=1.0)
          (3): SConv1d(
            (conv): NormConv1d(
              (conv): Conv1d(256, 512, kernel_size=(1,), stride=(1,))
              (norm): GroupNorm(1, 512, eps=1e-05, affine=True)
            )
          )
        )
        (shortcut): SConv1d(
          (conv): NormConv1d(
            (conv): Conv1d(512, 512, kernel_size=(1,), stride=(1,))
            (norm): GroupNorm(1, 512, eps=1e-05, affine=True)
          )
        )
      )
      (14): ELU(alpha=1.0)
      (15): SConv1d(
        (conv): NormConv1d(
          (conv): Conv1d(512, 1024, kernel_size=(16,), stride=(8,))
          (norm): GroupNorm(1, 1024, eps=1e-05, affine=True)
        )
      )
      (16): SLSTM(
        (lstm): LSTM(1024, 1024, num_layers=2)
      )
      (17): ELU(alpha=1.0)
      (18): SConv1d(
        (conv): NormConv1d(
          (conv): Conv1d(1024, 128, kernel_size=(7,), stride=(1,))
          (norm): GroupNorm(1, 128, eps=1e-05, affine=True)
        )
      )
    )
  )
  (quantizer): CostumeQuantizer(
    (rq): ResidualVectorQuantizer(
      (model): DistributedResidualVectorQuantization(
        (layers): ModuleList(
          (0-31): 32 x VectorQuantization(
            (project_in): Identity()
            (project_out): Identity()
            (_codebook): EuclideanCodebook()
          )
        )
      )
    )
  )
  (decoder): SEANetDecoder(
    (model): Sequential(
      (0): SConv1d(
        (conv): NormConv1d(
          (conv): Conv1d(128, 1024, kernel_size=(7,), stride=(1,))
          (norm): GroupNorm(1, 1024, eps=1e-05, affine=True)
        )
      )
      (1): SLSTM(
        (lstm): LSTM(1024, 1024, num_layers=2)
      )
      (2): ELU(alpha=1.0)
      (3): SConvTranspose1d(
        (convtr): NormConvTranspose1d(
          (convtr): ConvTranspose1d(1024, 512, kernel_size=(16,), stride=(8,))
          (norm): GroupNorm(1, 512, eps=1e-05, affine=True)
        )
      )
      (4): SEANetResnetBlock(
        (block): Sequential(
          (0): ELU(alpha=1.0)
          (1): SConv1d(
            (conv): NormConv1d(
              (conv): Conv1d(512, 256, kernel_size=(3,), stride=(1,))
              (norm): GroupNorm(1, 256, eps=1e-05, affine=True)
            )
          )
          (2): ELU(alpha=1.0)
          (3): SConv1d(
            (conv): NormConv1d(
              (conv): Conv1d(256, 512, kernel_size=(1,), stride=(1,))
              (norm): GroupNorm(1, 512, eps=1e-05, affine=True)
            )
          )
        )
        (shortcut): SConv1d(
          (conv): NormConv1d(
            (conv): Conv1d(512, 512, kernel_size=(1,), stride=(1,))
            (norm): GroupNorm(1, 512, eps=1e-05, affine=True)
          )
        )
      )
      (5): ELU(alpha=1.0)
      (6): SConvTranspose1d(
        (convtr): NormConvTranspose1d(
          (convtr): ConvTranspose1d(512, 256, kernel_size=(10,), stride=(5,))
          (norm): GroupNorm(1, 256, eps=1e-05, affine=True)
        )
      )
      (7): SEANetResnetBlock(
        (block): Sequential(
          (0): ELU(alpha=1.0)
          (1): SConv1d(
            (conv): NormConv1d(
              (conv): Conv1d(256, 128, kernel_size=(3,), stride=(1,))
              (norm): GroupNorm(1, 128, eps=1e-05, affine=True)
            )
          )
          (2): ELU(alpha=1.0)
          (3): SConv1d(
            (conv): NormConv1d(
              (conv): Conv1d(128, 256, kernel_size=(1,), stride=(1,))
              (norm): GroupNorm(1, 256, eps=1e-05, affine=True)
            )
          )
        )
        (shortcut): SConv1d(
          (conv): NormConv1d(
            (conv): Conv1d(256, 256, kernel_size=(1,), stride=(1,))
            (norm): GroupNorm(1, 256, eps=1e-05, affine=True)
          )
        )
      )
      (8): ELU(alpha=1.0)
      (9): SConvTranspose1d(
        (convtr): NormConvTranspose1d(
          (convtr): ConvTranspose1d(256, 128, kernel_size=(8,), stride=(4,))
          (norm): GroupNorm(1, 128, eps=1e-05, affine=True)
        )
      )
      (10): SEANetResnetBlock(
        (block): Sequential(
          (0): ELU(alpha=1.0)
          (1): SConv1d(
            (conv): NormConv1d(
              (conv): Conv1d(128, 64, kernel_size=(3,), stride=(1,))
              (norm): GroupNorm(1, 64, eps=1e-05, affine=True)
            )
          )
          (2): ELU(alpha=1.0)
          (3): SConv1d(
            (conv): NormConv1d(
              (conv): Conv1d(64, 128, kernel_size=(1,), stride=(1,))
              (norm): GroupNorm(1, 128, eps=1e-05, affine=True)
            )
          )
        )
        (shortcut): SConv1d(
          (conv): NormConv1d(
            (conv): Conv1d(128, 128, kernel_size=(1,), stride=(1,))
            (norm): GroupNorm(1, 128, eps=1e-05, affine=True)
          )
        )
      )
      (11): ELU(alpha=1.0)
      (12): SConvTranspose1d(
        (convtr): NormConvTranspose1d(
          (convtr): ConvTranspose1d(128, 64, kernel_size=(4,), stride=(2,))
          (norm): GroupNorm(1, 64, eps=1e-05, affine=True)
        )
      )
      (13): SEANetResnetBlock(
        (block): Sequential(
          (0): ELU(alpha=1.0)
          (1): SConv1d(
            (conv): NormConv1d(
              (conv): Conv1d(64, 32, kernel_size=(3,), stride=(1,))
              (norm): GroupNorm(1, 32, eps=1e-05, affine=True)
            )
          )
          (2): ELU(alpha=1.0)
          (3): SConv1d(
            (conv): NormConv1d(
              (conv): Conv1d(32, 64, kernel_size=(1,), stride=(1,))
              (norm): GroupNorm(1, 64, eps=1e-05, affine=True)
            )
          )
        )
        (shortcut): SConv1d(
          (conv): NormConv1d(
            (conv): Conv1d(64, 64, kernel_size=(1,), stride=(1,))
            (norm): GroupNorm(1, 64, eps=1e-05, affine=True)
          )
        )
      )
      (14): ELU(alpha=1.0)
      (15): SConvTranspose1d(
        (convtr): NormConvTranspose1d(
          (convtr): ConvTranspose1d(64, 32, kernel_size=(4,), stride=(2,))
          (norm): GroupNorm(1, 32, eps=1e-05, affine=True)
        )
      )
      (16): SEANetResnetBlock(
        (block): Sequential(
          (0): ELU(alpha=1.0)
          (1): SConv1d(
            (conv): NormConv1d(
              (conv): Conv1d(32, 16, kernel_size=(3,), stride=(1,))
              (norm): GroupNorm(1, 16, eps=1e-05, affine=True)
            )
          )
          (2): ELU(alpha=1.0)
          (3): SConv1d(
            (conv): NormConv1d(
              (conv): Conv1d(16, 32, kernel_size=(1,), stride=(1,))
              (norm): GroupNorm(1, 32, eps=1e-05, affine=True)
            )
          )
        )
        (shortcut): SConv1d(
          (conv): NormConv1d(
            (conv): Conv1d(32, 32, kernel_size=(1,), stride=(1,))
            (norm): GroupNorm(1, 32, eps=1e-05, affine=True)
          )
        )
      )
      (17): ELU(alpha=1.0)
      (18): SConv1d(
        (conv): NormConv1d(
          (conv): Conv1d(32, 1, kernel_size=(7,), stride=(1,))
          (norm): GroupNorm(1, 1, eps=1e-05, affine=True)
        )
      )
    )
  )
  (discriminator): MultipleDiscriminator(
    (discriminators): ModuleList(
      (0): MultiScaleSTFTDiscriminator(
        (discriminators): ModuleList(
          (0-2): 3 x DiscriminatorSTFT(
            (activation): LeakyReLU(negative_slope=0.2)
            (spec_transform): Spectrogram()
            (convs): ModuleList(
              (0): NormConv2d(
                (conv): Conv2d(2, 32, kernel_size=(3, 9), stride=(1, 1), padding=(1, 4))
                (norm): Identity()
              )
              (1): NormConv2d(
                (conv): Conv2d(32, 32, kernel_size=(3, 9), stride=(1, 2), padding=(1, 4))
                (norm): Identity()
              )
              (2): NormConv2d(
                (conv): Conv2d(32, 32, kernel_size=(3, 9), stride=(1, 2), padding=(2, 4), dilation=(2, 1))
                (norm): Identity()
              )
              (3): NormConv2d(
                (conv): Conv2d(32, 32, kernel_size=(3, 9), stride=(1, 2), padding=(4, 4), dilation=(4, 1))
                (norm): Identity()
              )
              (4): NormConv2d(
                (conv): Conv2d(32, 32, kernel_size=(3, 3), stride=(1, 1), padding=(1, 1))
                (norm): Identity()
              )
            )
            (conv_post): NormConv2d(
              (conv): Conv2d(32, 1, kernel_size=(3, 3), stride=(1, 1), padding=(1, 1))
              (norm): Identity()
            )
          )
        )
        (downsample): AvgPool2d(kernel_size=4, stride=2, padding=1)
      )
    )
  )
  (mel_spec_transforms): ModuleList(
    (0-5): 6 x Audio2Mel()
  )
)
2024-06-05 15:21:33,root,INFO,model parameter number: 66457385
2024-06-05 15:21:33,root,INFO,model arguments: Namespa
…
